1094243_1dconv_reg.pth (torch_old, 91620 bytes, 9 tensors)

weight f4 [64, 8, 1]
000000 bd 7f 14 c1 ff e8 3e bf e7 c2 70 41 f4 1f 44 40
       -9.281186 -0.74574274 15.047584 3.0644503
000010 de 21 a1 bf ce 83 1a c1 62 82 a3 40 12 05 99 40
       -1.258846 -9.657179 5.109666 4.781869
000020 81 31 7f c1 ae 9a f2 3f df d9 2c 41 c7 bc 63 3f
       -15.949586 1.8953454 10.803191 0.88959926
000030 24 39 8b 3f 87 4f b9 bf de 86 b3 c0 3f 1a 9e 40
       1.0876813 -1.4477395 -5.6102133 4.940704
000040 25 92 8f c1 9f c9 9a 3b 4d 50 68 41 5e 63 0b be
       -17.94636 0.004723742 14.519605 -0.13612124
000050 67 87 d2 c0 97 23 f5 bd c8 c6 f9 40 43 c6 e1 40
       -6.5790286 -0.11969679 7.8055153 7.055452
000060 1e 6b e8 c0 92 25 44 bf c1 da 01 41 39 ea c3 3d
       -7.263076 -0.7661983 8.115907 0.09566159
000070 a4 4c 50 c0 4a 4c 2e bf 8a 34 98 40 b1 3d 7d 40
       -3.2546778 -0.6808516 4.7564135 3.9568903
000080 c4 a8 37 c1 86 d3 82 bf 13 aa 3c 41 a2 05 9a bd
       -11.478703 -1.0220802 11.791522 -0.075206056
000090 8a 6d a3 c0 51 b4 48 3b 18 4e bd 40 23 5c be 40
       -5.1071215 0.0030625055 5.915783 5.948747
0000a0 46 4d 73 c1 ae 10 53 40 61 80 13 41 f9 1b 48 40
       -15.206366 3.297893 9.2188425 3.1267073
0000b0 dd ca d2 c0 ca c9 b1 bf ac 01 07 c1 1d 89 99 40
       -6.5872636 -1.3889706 -8.437908 4.7979875
0000c0 1d 95 e6 bd c4 16 d6 3d d4 98 1e 3e 35 36 b2 be
       -0.1125891 0.10453561 0.15487987 -0.34806982
0000d0 26 22 53 be 73 a9 06 be b9 9a 39 3e 41 e3 7e 3e
       -0.20618495 -0.13150577 0.18125428 0.24891378
0000e0 a8 cd ce 3d 3a ff 89 be 76 3d 8a be e1 f6 87 be
       0.100978196 -0.26952535 -0.27000016 -0.2655554
0000f0 d9 2d 83 3e 54 3b 9d bd 08 3d b0 be d1 fd 96 be
       0.25620916 -0.076773316 -0.34421563 -0.29490522
000100 2f 4c 40 3e 23 5b 85 be a5 f3 a8 3b e6 5d 36 bf
       0.18779062 -0.26046094 0.005155998 -0.7123703
000110 ea 37 98 be 99 41 a8 3e 05 77 a7 be bc 6d 1e 3d
       -0.2973016 0.32862547 -0.32707992 0.03867887
000120 36 4c 8c c0 55 17 bb 3f e6 21 21 40 86 3d 0a 3f
       -4.384303 1.4616495 2.517694 0.5400013
000130 16 45 05 c1 ad 1c 66 40 60 60 ba c0 8a a1 c0 3f
       -8.329367 3.5955002 -5.8242645 1.5049298
000140 9e 9c bd c0 dc bf 37 3f 0c 37 59 40 b5 98 09 3d
       -5.9253683 0.7177713 3.3939848 0.0335929
000150 a4 0f ea bf 59 3f 53 ba a2 c7 de 3f 09 dd 10 40
       -1.8286023 -0.0008058451 1.7404673 2.263491
000160 de f9 e6 bd e7 dd f0 bd 3e 1b 89 be 2b 1f 3c be
       -0.11278127 -0.117610745 -0.26778597 -0.18371265
000170 c8 dc 8c be ab d5 93 be f6 de 54 3e 90 7b ba bc
       -0.27512193 -0.28873953 0.20788178 -0.022763997
000180 5a 54 65 be 5a e4 a3 3e e0 8c 03 3d 5c 36 c3 be
       -0.22395459 0.32010156 0.03211677 -0.3812741
000190 c4 c7 04 3e 2a af 04 be 82 3f f5 3d a9 0c a6 bd
       0.1296683 -0.12957445 0.11975004 -0.081078835
0001a0 da 3a 31 bf ef c2 f0 3e 82 30 1c be 54 39 73 3e
       -0.69230425 0.47023723 -0.1525288 0.23752338
0001b0 b9 01 32 bf a2 39 49 bf a7 5f 3d 3e 36 cc 9a 3e
       -0.6953388 -0.78603566 0.1849352 0.30233926
0001c0 52 18 5e be 55 59 9b be d6 54 84 bc 21 8a d8 bd
       -0.21688965 -0.30341592 -0.016153734 -0.10573221
0001d0 d5 b0 0b be fc a1 4a be 7b 04 d4 bd 70 38 a9 be
       -0.13641675 -0.19788355 -0.10352417 -0.3305087
0001e0 51 e7 a1 be d6 3c ac 3e 5b b7 b8 3c 9f 7f 99 be
       -0.31621793 0.33640164 0.022548368 -0.2998018
0001f0 23 6f c3 3c bf bc c0 bd 8f 81 59 3c eb 47 23 3e
       0.023856705 -0.094110005 0.013275518 0.15945403
000200 ca 9d ee c0 65 26 06 40 ae ab 5c 41 df f1 19 40
       -7.4567614 2.0960934 13.791914 2.4053876
000210 9c 77 f1 bf 18 d1 f8 be 06 b6 b4 c0 b2 94 34 bf
       -1.8864627 -0.48597026 -5.6472197 -0.7053939
000220 51 71 cd c0 ea bc c5 3f 81 70 1a 40 ac 0d 11 40
       -6.4200826 1.5448277 2.4131167 2.2664595
000230 e1 41 ee c0 b1 dc 07 c0 c6 1e 54 c0 12 5c 32 40
       -7.445542 -2.122845 -3.3143783 2.7868695
000240 3c 31 cf bf 40 15 45 3f 34 7f e2 3f 2e 01 fe 3d
       -1.61869 0.7698555 1.7695069 0.12402569
000250 94 3b 1a 3f 82 6a 2c bf 57 13 ad bf e2 f1 37 bf
       0.6024716 -0.6735002 -1.3521527 -0.7185346
000260 ea 42 f8 bf 2e 15 43 be a7 3a 83 40 c8 0a de 3e
       -1.939542 -0.19051048 4.1009097 0.433676
000270 f1 88 5f 3f d4 7c 8d c0 cf a9 e8 40 2c d4 5f 3f
       0.8731833 -4.421488 7.2707286 0.87433124
000280 5c ab 55 be 41 70 d8 3c 66 9f 3d bd 43 b5 af bf
       -0.2086615 0.026420714 -0.046294592 -1.3727192
000290 5a 8b f1 be 17 d4 0e 3f 66 11 23 be 39 ff be 3d
       -0.4717663 0.55792373 -0.15924606 0.093260236
0002a0 6c 93 0b c1 f3 de 03 40 85 4a 94 40 21 2b 1e 40
       -8.723492 2.0604827 4.6340966 2.4713824
0002b0 22 b2 bf c0 ba 7a b3 3e cd 87 fa c0 74 f2 2a 40
       -5.9904947 0.3505457 -7.8290772 2.6710482
0002c0 cc 0c 38 be 91 6e 5d be 75 3c 71 3e f5 63 97 bf
       -0.17973632 -0.21624209 0.23558219 -1.182738
0002d0 5d 36 b2 be fc b2 ff 3e ae df e1 be 01 c0 73 3e
       -0.348071 0.49941242 -0.44115967 0.23803712
0002e0 bd 55 a5 be c0 de ae bd f5 e3 99 be 3c 49 9a be
       -0.32291976 -0.0853858 -0.3005673 -0.30133998
0002f0 f3 c7 02 3e de 22 dd bd 17 1b 9b be 65 a2 9e 3e
       0.12771587 -0.10797666 -0.30294105 0.30983272
000300 bb 57 7d c0 4e dc a5 3f df 8a 97 3f 9c 02 55 c0
       -3.9584796 1.2957857 1.1839255 -3.3282843
000310 a7 8e a6 40 6c 37 c4 bf 9f 46 f7 40 73 9d 54 bf
       5.2049136 -1.5329413 7.7273707 -0.8305275
000320 e2 cd 38 c1 6c 5a 45 c0 03 66 92 41 98 82 b1 bc
       -11.550264 -3.083644 18.29981 -0.021668717
000330 96 80 80 c0 27 ac ca bf 02 9b e0 40 74 74 fc 40
       -4.0156965 -1.5833787 7.018922 7.8892155
000340 00 00 74 39 bc 8f aa 3d 90 f6 89 bd 87 a7 7f be
       0.00023269653 0.083281964 -0.06736481 -0.2496625
000350 50 55 dc bd 00 e3 90 bc 20 ff 15 bc 1c fa a1 bd
       -0.107584596 -0.017686367 -0.009155065 -0.07909033
000360 93 54 6a 3e 55 ca 80 be d4 a2 26 3e 58 6d 36 3c
       0.22883825 -0.25154367 0.16273052 0.011134468
000370 de 76 03 bd a6 3b ed bc 49 c1 00 be e5 f4 0e 3e
       -0.032095782 -0.028959107 -0.12573732 0.13960607
000380 5a 26 1d c0 8f 5e 04 40 91 2e f2 c0 e0 bc 82 40
       -2.4554658 2.0682714 -7.5681844 4.085556
000390 71 9c ea 40 f6 42 83 c1 18 99 ae bf 3e 0e 38 c0
       7.331597 -16.407696 -1.364047 -2.8758693
0003a0 a3 90 93 c0 08 80 28 40 b0 2d 00 40 35 fb 8e 3d
       -4.611406 2.6328144 2.0027885 0.06981508
0003b0 bc 88 f9 3f b9 aa da bf 66 a2 47 c0 fe 1b fe bf
       1.9494853 -1.708335 -3.119287 -1.9852293
0003c0 f3 e2 85 be 44 ff 2d bc f5 ba 8b be 8e 22 94 bf
       -0.2614971 -0.010619942 -0.27291074 -1.1573045
0003d0 97 47 67 be ab 4f ec 3e 7a 89 52 bc 18 90 19 bd
       -0.22585903 0.46154532 -0.01285016 -0.037490934
0003e0 00 d4 83 3c f0 e6 72 bd 60 8a 48 bd cc bb 43 be
       0.0160923 -0.05930227 -0.04896009 -0.19114608
0003f0 fa 48 36 3e 63 c7 21 be ec 6a ca bd 42 5a 4f 3e
       0.17801276 -0.15798716 -0.09883675 0.20249274

bias f4 [64]
000000 78 55 af 3e 01 a6 f0 3d 9b da 57 3d 5c 10 76 be
       0.34244895 0.11750413 0.052698713 -0.24029678
000010 e7 fa f8 3c 2e 20 a6 3e d3 61 ff 3c a0 a6 90 bc
       0.030393077 0.32446426 0.031174576 -0.017657578
000020 e8 36 b8 3d 7f e4 4c be 50 b8 98 be 37 39 88 bd
       0.089948475 -0.2000904 -0.2982812 -0.06651538
000030 7d 70 40 3d 42 92 20 3e 45 a8 9f 3d 18 b0 0c be
       0.046982277 0.15680793 0.07795767 -0.1373905
000040 9f 8a 91 3e d0 cf 98 3e 2c 19 3a be 21 9f 1b 3e
       0.28426072 0.29846048 -0.18173665 0.15197422
000050 92 87 43 3e 96 de ba 3e ca e4 93 3e cb 2d 22 be
       0.19094685 0.36497945 0.2888549 -0.15837781
000060 27 65 c0 3e 02 41 5c 3e e0 01 23 bc e2 e7 21 be
       0.37577173 0.21509174 -0.0099491775 -0.15811113
000070 bb f9 d1 bd 56 3b a6 3c 98 03 cd bd 40 92 f9 3b
       -0.102527104 0.020291965 -0.10010451 0.0076163113
000080 ee 29 9c 3e 22 09 04 bc ad 0f ee bc de 91 e5 3d
       0.3050074 -0.008058818 -0.02906021 0.112094626
000090 e2 ea 95 3e e3 46 2d 3e b0 08 95 3e c4 fb 98 3e
       0.29280764 0.16921572 0.2910819 0.29879582
0000a0 df f4 b8 bd 97 7d 48 3e 94 7d a5 3e 40 df 8b 3d
       -0.090310805 0.19579159 0.3232237 0.06829691
0000b0 9c 01 a3 be e4 da 2a 3e 4f fe eb 3d 71 f2 6d be
       -0.31837165 0.16685063 0.11523115 -0.23237015
0000c0 ff a1 a1 3e 04 3d bb 3d a2 c8 0f 3e bd 3d 38 3d
       0.31568906 0.09142497 0.14041379 0.044980753
0000d0 f9 00 37 3e ad 5c 89 3e 03 31 84 bd 82 11 8f be
       0.17871465 0.26828519 -0.06454661 -0.27943045
0000e0 db 5f 76 3e 28 6e 1a 3e 67 4d b1 3e 87 7e b2 bd
       0.24060003 0.15081084 0.34629366 -0.087155394
0000f0 ea bb 12 bd 3d 28 59 be b6 32 5e 3e a3 1b 9b 3e
       -0.03582374 -0.21206756 0.21699032 0.30294523

weight f4 [128, 64, 1]
000000 13 cc cf be e2 19 33 39 7e 2b 6f bd 18 91 3d 3b
       -0.40585384 0.00017080412 -0.058391087 0.0028925594
000010 de 07 ff bd c3 10 59 3e 79 70 36 3d b4 21 5e 3d
       -0.124526724 0.211978 0.044540856 0.05423136
000020 f7 25 ac bd f7 c7 7b 3e 78 ad d8 3c 58 1c ec bd
       -0.08405679 0.24588 0.026449904 -0.11528844
000030 9d a1 fd 3d 29 da 1e 3e 2e 9b 1e 3d 07 97 67 3c
       0.12384341 0.15512909 0.03872221 0.014135129
000040 93 32 b0 bf cb 7c 06 3f 4b dc 0a be 8b 34 bf bd
       -1.3765434 0.5253417 -0.13560598 -0.09336194
000050 78 e9 f8 3d 72 c1 cf 3d c0 ee fc 3c 64 6c 2f 3d
       0.12153906 0.10144319 0.030875564 0.04282798
000060 d1 b0 69 be 5e d5 9f be a4 5d 78 3d bf 1a 82 bd
       -0.22821356 -0.31217474 0.060636178 -0.06352758
000070 38 28 22 bf a9 0a c3 3d 3b 2b 02 be a8 95 ed bc
       -0.6334262 0.09523518 -0.12711804 -0.029002026
000080 c5 2d ec 3d 63 5f f7 3d 54 2a dd bd 26 da 1a bf
       0.11532167 0.120787404 -0.10799089 -0.6048912
000090 1f a7 8c bc ce cc a0 3d 8f 52 d0 bd e6 e2 1d 3f
       -0.017169533 0.078515634 -0.10171997 0.61674345
0000a0 a2 95 8e bd 06 38 9c bd 7c 89 7d 3d 60 e6 17 3f
       -0.06962134 -0.07627873 0.061898693 0.593359
0000b0 8c 83 7e bf 59 05 c7 be f1 7e 61 be 31 b6 3b be
       -0.99419475 -0.38871267 -0.2202108 -0.1833122
0000c0 00 8a 8a 3b b8 ce f9 bd 5c 0a da bd 84 d8 af bd
       0.0042278767 -0.121976316 -0.10646507 -0.08586219
0000d0 97 0e f0 3d 12 58 8b bd 53 c6 2b bf 08 56 30 3e
       0.11721533 -0.068039075 -0.67099494 0.17220318
0000e0 f7 80 82 3e 34 dd 86 3d 76 40 a9 3f ff 3e a7 3e
       0.25489017 0.0658516 1.3222797 0.3266525
0000f0 28 77 8a be b8 9e 1c be ce 6c 05 be bf 1a 97 3e
       -0.27044034 -0.15294921 -0.13029787 0.29512593
000100 1a a6 32 bd 1c 80 44 3d ad 7e e4 bc 74 00 c3 bd
       -0.043615438 0.047973737 -0.027892435 -0.09521571
000110 11 8f c3 bc d4 db be bd 62 c1 f4 bd 90 17 1a bd
       -0.02387193 -0.09319273 -0.11950947 -0.037620127
000120 b2 c3 4f 3d ab a5 9f bd 1a d8 21 bd 90 19 d6 3c
       0.05072374 -0.077952705 -0.03951273 0.026135236
000130 0e 7d bc bd 18 2c 12 3d 90 08 f7 3d 1a e7 3e 3c
       -0.0920354 0.035686582 0.1206218 0.011651779
000140 e6 df 91 bd bb 3b a2 bd 73 ab 80 3d 8c f8 83 bc
       -0.07122783 -0.07921549 0.06282701 -0.016109727
000150 27 c7 92 bd 08 66 7d 3d 08 e6 5a bb 7c 39 b4 3d
       -0.071668915 0.061864883 -0.003340127 0.08800027
000160 7c 33 b7 bd cd d2 7b 3c 52 44 81 bd 40 d2 dc 3b
       -0.08945367 0.015370083 -0.06311859 0.006738931
000170 5d e0 e5 bd fa 0d bb bd b5 54 9e 3d 46 28 bd 3d
       -0.112244345 -0.09133525 0.07731 0.09236197
000180 38 74 a1 bd 03 a3 90 3d 7e 7c 54 ba af 21 74 bd
       -0.07883495 0.07062342 -0.0008105709 -0.059602436
000190 cc 9a df 3c 9c 9e 84 bd e4 c8 92 bd 44 67 7a 3c
       0.027295493 -0.06475565 -0.07167223 0.0152834095
0001a0 c4 e8 90 3c 4a ed 0f bd 83 44 4c bd 80 17 1a 3d
       0.017689116 -0.035138406 -0.049870025 0.037620068
0001b0 22 9c 25 bd 9d 31 5a 3c 88 55 24 3d 71 ea d2 3d
       -0.040432103 0.013317493 0.04012063 0.102986224
0001c0 d0 ef 57 bd ee 25 a3 bd 5c 2d 6b bd 10 5b 1e 3d
       -0.052718937 -0.07966219 -0.057416305 0.038661063
0001d0 32 2d 8b 3d 00 cf 28 bc 75 e1 54 ba ed c7 91 bd
       0.0679573 -0.010303259 -0.0008120754 -0.07118211
0001e0 2b d6 ad bd ba 96 22 bd fe a4 88 bd 35 ee f9 bc
       -0.08488115 -0.039694525 -0.06672095 -0.030509094
0001f0 e8 4c 5b bd 0d 34 39 bd dd 9d 83 3d 53 6a bf bc
       -0.05354014 -0.045215655 0.064265944 -0.023366129
000200 75 0b 1e 3d 28 b0 95 bf e7 72 ea be 99 3f 35 3c
       0.038585145 -1.1694384 -0.4579079 0.011062526
000210 54 b4 09 bf 27 ff 92 3e 56 c4 47 3d a0 d6 4b bc
       -0.53790784 0.2871029 0.048771225 -0.012441307
000220 a3 d9 04 3d 88 84 d2 bc 05 9f 80 be c3 bc b3 bd
       0.032434117 -0.025697961 -0.25121322 -0.08776238
000230 3d 30 fe 39 17 2c 40 3d 99 2f a0 3b 7b 63 13 3c
       0.00048482596 0.046917047 0.0048884866 0.008995886
000240 18 0c fd bf 12 cb 73 3e 45 c9 22 3d e0 cc 16 3f
       -1.9769316 0.23807934 0.039742727 0.58906364
000250 18 ec 28 bd bd 9d 0e 3e 6b 04 0c bd 61 df 89 bd
       -0.04124078 0.1392736 -0.0341839 -0.06732059
000260 f1 9c 8e 3f d0 83 ca 3e 70 ca e2 3c 11 d7 97 3d
       1.1141645 0.3955369 0.02768442 0.074140675
000270 c3 cd 18 c0 93 53 3c 3e b5 61 59 bd f8 6a c9 bc
       -2.3875587 0.18391256 -0.053071696 -0.02458714
000280 ab 91 2b bd 4f ba c2 bc ab 41 84 3e 24 b9 54 be
       -0.041886967 -0.02377048 0.2583135 -0.2077375
000290 4e 01 a1 3d 3b ba 95 be 09 a3 9c 3d 0d f0 9e 3d
       0.07861577 -0.29243645 0.07648284 0.0776063
0002a0 37 59 84 bf 96 04 5a 3f fc d1 fc bd 23 41 bb 3e
       -1.0339726 0.8516325 -0.12344739 0.36573133
0002b0 d7 2c 9d 3f 08 e3 0b bf 32 d4 86 be d9 ba b0 3e
       1.2279309 -0.546433 -0.26333767 0.34517553
0002c0 ca c6 da 3d c5 14 96 bf 12 55 be bd bc 63 db 3d
       0.10682447 -1.1725088 -0.092935696 0.10712382
0002d0 8b ac ec 3c e4 75 ee bd 27 95 d2 3f 08 35 80 be
       0.028890869 -0.116435796 1.6451768 -0.2504046
0002e0 21 17 12 be 0b 99 6c 3d 14 19 d8 bd c5 6a 57 c0
       -0.14266635 0.05776314 -0.10551658 -3.3658917
0002f0 1a 3b 0b bf 67 0f 1f 3d 36 91 1b 3f 08 ff cc 3d
       -0.54387057 0.03883305 0.6076845 0.10009581
000300 9d 63 a5 be 00 31 30 3f 65 ba 0d be 61 62 19 3c
       -0.3230256 0.6882477 -0.13840635 0.009361834
000310 0c 82 bf 3b 96 17 b3 3e 00 dc 39 3d c8 fd a3 bc
       0.00584436 0.34978932 0.045375824 -0.020018473
000320 49 d2 1f 3e f7 fc 00 3e 1b f7 0b be 97 74 d6 bd
       0.15607561 0.12596498 -0.13668482 -0.104714565
000330 fb 87 4c 3d d4 0f 31 3d 33 89 a5 3c 57 d3 92 3d
       0.04993437 0.043227986 0.020207023 0.07169216
000340 81 ab b6 3d 63 94 65 bd 45 fa db bd d4 1d 27 bf
       0.089194305 -0.056049716 -0.107410945 -0.6527989
000350 92 a3 a0 3d bc c9 fa 3d ad cf 59 3d fa e6 ce bd
       0.078436986 0.12245509 0.05317657 -0.10102649
000360 4b 58 21 bf 89 e9 02 3f 30 3e fc bc 28 9e e5 bc
       -0.6302535 0.51137596 -0.030791372 -0.028029516
000370 ae e1 ea bf b7 61 cb be 0b 89 12 3e 08 c0 2d bd
       -1.8350122 -0.39722988 0.1431009 -0.042419463
000380 70 94 78 3d 60 e3 47 be e0 5f d7 3e 44 4a e2 bf
       0.060688436 -0.1952033 0.42065334 -1.7678914
000390 c8 51 3e 3d 13 5c 22 be ca e6 8f 3c 9a e2 c7 bd
       0.04646471 -0.15855436 0.017566103 -0.09760018
0003a0 66 83 9e bd b1 aa 2f c0 44 1b 10 3d 96 14 87 bf
       -0.07739906 -2.7447932 0.035182253 -1.0553157
0003b0 dc 9a 2c 3e 62 92 fa bd 77 34 6c bf fc 30 b5 3e
       0.16855949 -0.122349516 -0.92267555 0.35388935
0003c0 8a f6 a7 3d 55 81 9e bc d0 aa 32 bc 63 06 1b 3e
       0.082013205 -0.01934878 -0.010904983 0.15139155
0003d0 35 f2 34 3d 40 e5 8f bc f4 c2 3b 3f e2 60 3b be
       0.0441763 -0.01756537 0.7334435 -0.18298677
0003e0 88 e9 09 bf 4e d7 27 bd da 07 96 3f e4 7f 95 3f
       -0.53871965 -0.040976815 1.1721146 1.1679654
0003f0 e1 eb 50 3e 91 39 6a be c6 62 6d 3e 67 15 82 be
       0.2040248 -0.22873522 0.2318221 -0.25406954

bias f4 [128]
000000 59 69 18 bd 57 20 ca bd 5a 70 18 3d f6 1b 6b 3c
       -0.037209842 -0.098694496 0.03721652 0.014349928
000010 cc be 72 bd 5b 5c 5a 3d c4 98 0d 3d 82 52 66 3c
       -0.05926399 0.053310733 0.034569517 0.014057757
000020 f7 79 ac 3d 1a e0 01 bd b9 3b a0 ba f7 7b dc 3d
       0.084217004 -0.03170786 -0.001222483 0.10765832
000030 8e 27 dd 3d 0c 25 de 3d 8b 8b 81 bd fc 13 b6 bd
       0.1079856 0.1084691 -0.06325444 -0.088905305
000040 b7 5b 48 3d 49 aa 9f 3d 58 b7 cf 3c 80 b8 f0 3c
       0.04891559 0.07796151 0.02535598 0.029384851
000050 4c d2 66 3d ff fc bf 3d 11 ff 19 bd 51 f9 00 3e
       0.0563529 0.09374427 -0.037596766 0.12595107
000060 61 69 25 bd f9 5a e6 bd d4 23 81 bd b0 ac 43 3d
       -0.0403837 -0.112478204 -0.06305662 0.04777211
000070 35 39 47 3c ef a5 8b 3d c9 e1 e4 3d 62 ef c7 3d
       0.012159635 0.06818759 0.111758776 0.097624555
000080 4d 81 de 3d da 5e 63 bd 04 74 86 3d f3 80 20 bd
       0.10864506 -0.05551038 0.06565097 -0.039185476
000090 bf 77 0a 3e b3 89 9a bd 66 7b 85 3d ed d3 a8 ba
       0.13522242 -0.07545795 0.06517677 -0.0012880542
0000a0 23 8a 72 bd b8 aa ce 3d 90 d7 0d 3c a7 ed 61 bd
       -0.05921377 0.10091156 0.008657351 -0.055158284
0000b0 64 58 b5 b8 6e 41 2f bb 6a 6b 57 bd 3c e1 69 bc
       -8.6472166e-05 -0.002674188 -0.052592672 -0.0142748915
0000c0 8b 98 0d 3e 23 3e 79 3d 89 4c 76 bd 98 3e d1 3d
       0.13827722 0.060850274 -0.060131583 0.10217017
0000d0 f0 80 4c 3d c1 ba 02 bb bd 17 ac bc 87 bb 02 3e
       0.049927652 -0.001994774 -0.021007413 0.12766849
0000e0 16 bb 1a 3e a2 b8 d2 3c ee 0c fe 3d 7d 99 b7 bd
       0.1511043 0.025722805 0.1240481 -0.089648224
0000f0 a8 97 cc bd 61 ff 55 3d 64 db e8 3d 33 e6 8e bc
       -0.09989864 0.0522455 0.113699704 -0.017443752
000100 e3 0c 92 bd f5 3b 73 3d 45 bb c4 bd 13 e1 fb 3d
       -0.07131364 0.05938335 -0.09606031 0.12298789
000110 36 a5 9e 3d cd 26 6e 3d eb fa 0c 3d 62 c2 81 3d
       0.07746355 0.058142472 0.03441898 0.06335904
000120 dd c6 49 3d 26 53 bc 3d 74 69 14 3c 0a 25 cb bd
       0.049261916 0.09195547 0.009058345 -0.09919174
000130 29 c6 53 3e e0 d5 6e 3c 97 d0 41 bd 37 cf aa 3d
       0.20681061 0.014577359 -0.047318067 0.08340304
000140 43 62 b8 3d 48 79 b8 3d 90 7f ae 3d 9e 82 52 3d
       0.09003117 0.090075076 0.08520424 0.051394098
000150 bb 21 a5 3d b5 f5 c5 bc 71 14 d5 bc f9 4f e0 3b
       0.08063074 -0.024165014 -0.026010724 0.006845471
000160 9c 9e ca bb 5e ef 80 bc 23 d1 41 bc b8 6f 94 bd
       -0.0061834585 -0.01573914 -0.011829647 -0.07247871
000170 c9 d2 10 3e bf 28 34 3d 24 53 0c 3c e4 2f 86 bd
       0.14142908 0.04398417 0.008564744 -0.06552103
000180 c6 62 01 bd e2 15 8a 3d f8 7f 61 bd 3c 99 96 3d
       -0.03158834 0.06742455 -0.05505368 0.07353446
000190 59 4b 12 3e 91 2f 83 3c e4 ee da 3d 0f 15 54 3d
       0.14286555 0.016013892 0.10690096 0.051777896
0001a0 f9 b3 86 3d 72 70 11 bd 71 1f 51 bd 64 a4 72 3d
       0.06577296 -0.035507627 -0.051055375 0.059238806
0001b0 3a 07 00 3e cb 96 02 3e 2f 48 a6 bd 3c e6 f6 3d
       0.12502757 0.12752835 -0.08119237 0.120556325
0001c0 7d 98 b8 bd bb d3 95 3d 81 67 46 3c 95 f4 d6 bc
       -0.0901346 0.07315775 0.012109638 -0.026239673
0001d0 11 53 93 3d 2e da 3a 3d 7e bd 00 bd 00 46 59 bc
       0.07193578 0.04561823 -0.031430714 -0.013261318
0001e0 09 d2 da 3d 18 02 ce bd 02 96 79 3d 3e ba 6d 3c
       0.10684592 -0.10058993 0.060934074 0.014509736
0001f0 1e f8 14 3e 01 76 3c bd ad 4e f4 bc 9d 70 18 3e
       0.14547774 -0.046010975 -0.029822672 0.14886709

weight f4 [64, 128, 1]
000000 88 39 2d bd 8b a2 99 bd 9b 57 90 bd 4f 19 2e 3d
       -0.042291194 -0.07501706 -0.070479594 0.042504605
000010 3b 99 94 3d 67 9c a2 bc 51 95 73 bd 26 ad 95 3d
       0.07255789 -0.01984997 -0.05946857 0.07308416
000020 a2 80 0d 3d c4 e8 08 3d c1 cc a5 ba 7f 19 a9 3d
       0.034546502 0.033425108 -0.0012649522 0.08256816
000030 05 3b dd 3d a5 dc 80 bd 05 cf ee 3b da 00 d0 bd
       0.10802273 -0.062920846 0.0072878622 -0.101564124
000040 08 91 93 bd fd ed 7f 3d b2 21 37 be 29 f9 4e be
       -0.07205397 0.062482823 -0.17883947 -0.20212235
000050 88 1f c3 3c 20 13 87 3c e8 12 6a 3d b6 db 01 3d
       0.023818746 0.016488612 0.057146937 0.031703673
000060 da 4e 62 bc 45 4e 30 3c d5 81 4e 3d 8f eb 9e 3c
       -0.013812745 0.010760848 0.050416786 0.019399432
000070 90 3f 2c bb db 05 c7 bc 82 87 8b 3d b8 10 08 3b
       -0.0026283003 -0.024294784 0.068129554 0.0020761918
000080 92 16 3f 3d 1a 40 ab 3c 1e ac 97 bd 15 18 82 3d
       0.046652384 0.02090459 -0.074058756 0.063522495
000090 07 3d 77 3d 04 b5 2c 3d 36 12 6b 3c bf 36 95 bc
       0.060360935 0.042164817 0.014347604 -0.018214582
0000a0 2e ef b2 bd 16 de 97 3d da a3 50 bd eb 40 14 bd
       -0.08737026 0.074154064 -0.05093751 -0.036194723
0000b0 1f 0e f5 3c 41 81 c5 3a c4 dc 91 3d 43 10 98 bd
       0.02991396 0.0015068428 0.07122186 -0.07424977
0000c0 10 51 c0 bc b3 c0 d1 bd 04 ea bc 3c c8 7b 72 bd
       -0.023476154 -0.102418326 0.023060806 -0.05920008
0000d0 a6 67 cd bc 9d 9d 23 3d af bd 87 bd 73 34 8c bd
       -0.025073837 0.039945234 -0.06627976 -0.068459414
0000e0 52 84 55 3d 8a 28 36 bd 14 b6 89 bd 26 8c b7 bd
       0.052128144 -0.044472255 -0.06724182 -0.08962278
0000f0 c8 85 24 bc 33 74 97 bd 17 6a a4 bc e3 cc d5 bd
       -0.010041662 -0.0739521 -0.020070119 -0.1043947
000100 10 4f c6 bd df 17 62 bd d6 6d 6f 3d f6 a6 c1 bd
       -0.09683049 -0.055198546 0.058454357 -0.094556734
000110 1a 3f cf bc 29 1d e3 bd ac 55 be bc 06 d8 d8 bc
       -0.025298644 -0.11089546 -0.02323421 -0.026470196
000120 83 b3 c9 3c 38 04 10 bc a8 7f 82 3b a5 98 a0 bc
       0.02462173 -0.008790068 0.003982503 -0.019604037
000130 45 84 01 be d8 ad 81 bd 2c 85 0b bd 14 7d 41 3b
       -0.12648113 -0.06331986 -0.03406255 0.0029524015
000140 d8 23 8c bd fb 25 a0 bd b5 0f 43 bd dd 0d 65 bb
       -0.06842774 -0.07819744 -0.0476224 -0.003495089
000150 ab 24 86 bd 2b 15 86 3c 2f 39 c1 bc 9b 6f bf bb
       -0.065499626 0.016367516 -0.023586838 -0.005842162
000160 b2 16 e7 3c 70 5f 84 bd 3a 87 42 3d d9 58 66 3d
       0.028209064 -0.06463516 0.047492243 0.056237075
000170 d1 86 97 bd 7d 1b 11 3d eb 82 df bd 2e a9 8f bd
       -0.07398761 0.035426605 -0.109136425 -0.0701469
000180 ff bf 8b bd 59 b9 7b 3d 54 d3 4f bd 8e a8 64 3c
       -0.0682373 0.06145606 -0.050738648 0.013956202
000190 96 1f c5 3c 57 20 de 3c 0f 93 01 bd dc 70 60 3d
       0.024062913 0.02711503 -0.031634387 0.05479513
0001a0 32 a0 af bd 32 11 49 bd 7d 5e 2d bd af fd f7 3c
       -0.08575477 -0.049088664 -0.04232644 0.030272333
0001b0 2d c9 cd bc 03 d2 ee bd f8 40 e6 bd 3d 32 bc bd
       -0.025120342 -0.1166115 -0.112428606 -0.0918927
0001c0 fa 2c 95 bd a4 a7 da bc ee 17 c1 bc 79 6a 99 bd
       -0.07283969 -0.026691265 -0.02357098 -0.07491011
0001d0 3d 5a 60 bd cc a4 cd bc 7e c9 22 3c e9 2f 1a bd
       -0.054773558 -0.025102995 0.009935735 -0.037643347
0001e0 44 3f 95 bd 0e 36 06 3d be 17 5a bb 8c 2e c5 bd
       -0.072874576 0.032766394 -0.0033278312 -0.09628019
0001f0 66 92 8c 3d 70 b8 00 3e 0d 81 d6 bc fa b4 40 bd
       0.06863861 0.12570357 -0.026184583 -0.047047593
000200 0d 4f 00 3e ba 1b 36 bd d6 87 67 3e 1f 77 8b bf
       0.12530155 -0.044460036 0.22610411 -1.0895728
000210 21 b6 0c bd 14 31 90 bf 1b 6c 71 bc 6c cd 29 bf
       -0.03435338 -1.1264977 -0.014735247 -0.66329074
000220 c1 f9 65 bf b5 02 14 be c3 61 86 bf 72 41 47 3e
       -0.8983422 -0.14454158 -1.0498585 0.19458559
000230 86 ef 44 be fc c1 48 be 20 a0 92 be 63 ae 1a 3e
       -0.19231996 -0.19605249 -0.2863779 0.15105586
000240 ff 1b a4 bd a3 38 d1 be b2 f1 e4 3e 33 ef 05 3f
       -0.08013152 -0.40863523 0.4471565 0.52318114
000250 31 3d 0f bc d8 9b 22 3f fa 99 18 3e 39 8e 4b 3e
       -0.0087426165 0.6351905 0.14902487 0.19878472
000260 09 af 39 bc c6 c8 83 3d 5d 04 d0 bc 18 6a 83 3e
       -0.011333236 0.06434779 -0.025392706 0.2566688
000270 b3 16 ed be 9b 68 b9 3b 7a 03 de 3d ed 8d ec 3d
       -0.4630638 0.005658222 0.10840507 0.11550508
000280 65 e0 0a be 25 9b 37 3f 66 21 33 be 24 32 0a bf
       -0.13562162 0.71721107 -0.17493209 -0.5398276
000290 7f 2c 81 3e 34 23 81 be 50 d0 57 be c3 99 9a 3d
       0.2522926 -0.2522217 -0.21075559 0.07548859
0002a0 ad 92 a9 be 5f ed 67 bf 1e b3 30 3d 9e 36 e6 3d
       -0.33119717 -0.90596575 0.04313957 0.11240886
0002b0 7b 1b a6 be 9d 36 2f 3f 9d aa 20 be 40 15 cd 3e
       -0.3244284 0.6844271 -0.15690084 0.40055275
0002c0 75 92 a1 3d 25 ef ac bf 7d ca bf bf dc f3 ff bd
       0.078892626 -1.3510481 -1.498367 -0.12497684
0002d0 45 a4 70 3d ca 4e 2b 3e 18 0b dd be 76 c8 ef 3d
       0.05875041 0.16729274 -0.43172526 0.11708157
0002e0 a4 02 84 be 51 bd a5 be f6 3d f8 3d c7 5d 76 bf
       -0.25783265 -0.32371 0.12121193 -0.9623684
0002f0 08 f3 d4 3c e6 d9 09 3e f1 b5 b3 bd 4e 8c cf bd
       0.025994793 0.13462028 -0.08774937 -0.10134183
000300 e5 70 44 bd 18 c4 2d bf 75 6b b7 be 7e b1 8d bf
       -0.047959227 -0.6787734 -0.3582417 -1.1069791
000310 79 2d 64 3e bc ab 19 3e 1f 4f 50 bf d2 ce 8d be
       0.22282971 0.15006918 -0.8137073 -0.27696854
000320 13 87 f0 be fd 35 26 be 69 47 29 3e 14 56 3f 3d
       -0.46978053 -0.16231532 0.16531147 0.04671295
000330 be ed 51 bf 41 ec 54 be f9 03 06 be 48 23 19 bf
       -0.8200339 -0.20793249 -0.13087453 -0.5981946
000340 8c c2 ab 3e 84 9f 9e be 34 5a 0c 3e 6b c9 b8 3e
       0.33546865 -0.30981076 0.13706285 0.3609117
000350 04 56 61 3e 89 35 f9 bc ca 4c 03 be d1 b3 80 3e
       0.22005469 -0.030421035 -0.12822261 0.2513719
000360 47 8c 37 be 67 6a c3 be 67 af c7 3d 66 ed 89 3e
       -0.17924605 -0.38167116 0.09750252 0.26938933
000370 49 65 50 be 43 f8 22 be af da e8 3d 0d 0a 83 3c
       -0.20351137 -0.15915017 0.113698356 0.015996004
000380 d4 af c0 3d 68 60 8f bf 55 49 ea 3e f2 97 57 bc
       0.094085366 -1.1201296 0.45759073 -0.013158785
000390 e5 30 b4 3e fe 43 e2 3e 74 c7 22 3e 13 26 b9 3d
       0.35193554 0.441925 0.15896398 0.09040465
0003a0 a6 1d 8d 3d e9 0d c7 be 46 0c 49 3e ae 42 f7 bd
       0.068904206 -0.388778 0.19633588 -0.12073265
0003b0 4d 01 07 be 35 d0 78 be fb 36 34 3e c9 3a 7d be
       -0.1318409 -0.24298175 0.17599098 -0.24729456
0003c0 07 be 42 3e f0 5c 6b 3e a1 0f d9 bd 90 de 83 3d
       0.19017802 0.22984672 -0.10598684 0.06438935
0003d0 f7 8d ca 3d cc 66 5c 3b ef 2c 0f bf b7 30 c4 bd
       0.09890359 0.0033630608 -0.5592794 -0.09579604
0003e0 75 ec aa bd 51 b0 fc 3d 3d 9b 3f 3e c7 b9 e1 be
       -0.08345882 0.12338317 0.18711562 -0.4408705
0003f0 2e ee 80 3d 3c 4b 94 3e a5 54 09 bf ed 1f 1f bc
       0.06295429 0.2896365 -0.5364478 -0.009712202

bias f4 [64]
000000 0e 63 24 3d f3 87 ff 3c 79 f4 14 bd f5 df a8 3d
       0.04013353 0.031192755 -0.03636596 0.082458414
000010 77 a5 41 3d a1 0b 82 3d fd 28 82 bc 5c e2 d8 3d
       0.04727694 0.06349874 -0.015888685 0.105900496
000020 b9 72 94 bc 41 72 80 3c 07 b3 02 3d e0 b0 20 3e
       -0.01812111 0.01567948 0.031909015 0.15692472
000030 62 02 a4 bb 3b f4 d7 3b d3 33 69 3c 26 0d 41 3d
       -0.005005167 0.006590394 0.014233547 0.04713168
000040 e0 a5 2b bb 49 36 f8 3d 81 b4 8e bd 72 80 d8 3d
       -0.0026191399 0.12119729 -0.06968022 0.10571374
000050 16 4c 78 bc ff d7 c9 3d 90 70 8d 3c 78 eb 59 bc
       -0.015154859 0.09855651 0.017265588 -0.013300769
000060 72 c5 09 3d c5 ef 29 3d db 83 26 3d 1e da 34 bd
       0.033635564 0.041488428 0.04065309 -0.044153325
000070 55 6b d0 3d 9c b5 96 bc de 7a b7 3c 31 ff 78 bd
       0.10176722 -0.018397145 0.022397455 -0.060790244
000080 5e 7a b1 37 97 41 4c bc 74 46 3f 3d b0 ae d5 3d
       2.1157026e-05 -0.01246681 0.04669805 0.104337096
000090 01 8b 15 3d e7 c0 d9 3d cb e8 bc 3c 8b be 14 bd
       0.036509518 0.10632496 0.023060223 -0.03631453
0000a0 20 f3 b8 3d 74 9c 96 3d b2 a9 0a 3b 4f 79 0d bd
       0.090307474 0.0735406 0.0021158275 -0.034539517
0000b0 55 61 40 3b fa 43 c2 bc f5 29 38 bd 7a e2 84 3d
       0.002935489 -0.023714054 -0.04496189 0.064885095
0000c0 6f 51 72 3d b9 b6 e5 bc fd f6 8d 3d 84 aa cd 3d
       0.059159692 -0.02804123 0.06931875 0.10042289
0000d0 43 72 48 bd ab 7e b3 3c e7 67 c1 3c 6b 88 d7 3c
       -0.048937093 0.021910986 0.023609115 0.026310166
0000e0 ca a2 7a 3d 9d 5b 7b bd 77 a1 2b 3d 17 77 bd 3c
       0.061190404 -0.061366666 0.04190203 0.023128076
0000f0 a9 fd 75 bc 14 6f 08 3e da f2 ba 3d 6c 79 94 3d
       -0.015014091 0.13323623 0.091283515 0.07249722

weight f4 [32, 64]
000000 49 9d e6 3d f5 37 3d be 6d 9b 69 be 39 b2 07 be
       0.112604685 -0.18478377 -0.22813196 -0.1325158
000010 b3 b0 bd 3e f4 9f 90 bd 14 39 80 3e 94 fa 4c be
       0.37048873 -0.07061759 0.25043547 -0.20017463
000020 a9 c9 09 3f 7c a7 0a be 3b 1a 8f be 95 6a 49 be
       0.53823334 -0.13540453 -0.279497 -0.19669564
000030 e0 9b 2b be f7 15 01 be 4b 03 e9 3b 72 03 57 be
       -0.1675868 -0.12606035 0.0071109883 -0.20997408
000040 3d d6 4d be 78 2e 5f be 1d 5f bc bd 6a 35 28 be
       -0.20101257 -0.2179507 -0.09197829 -0.16426626
000050 df fd 03 be e5 9c 4b bd d7 35 60 be 86 8c 7d 3e
       -0.12889813 -0.049710173 -0.21895538 0.24760637
000060 11 0c 84 bd c9 62 b6 bd c1 a1 3b be 4a b0 af 3e
       -0.06447614 -0.089055605 -0.18323423 0.34314185
000070 b7 87 3d be 8d 4a 58 be b0 b1 72 be 89 24 9a bd
       -0.18508802 -0.21122189 -0.23700595 -0.075265
000080 bc 81 0d 3f e8 ad 2f be 20 93 8c 3e b3 9b 49 be
       0.55276084 -0.17156184 0.27455997 -0.19688301
000090 12 f1 9a be 78 1a 38 be dc da cf bd 9b 10 89 be
       -0.30262047 -0.17978847 -0.10149166 -0.2677048
0000a0 5a ca 1d be 61 90 85 be 0f de 82 be 37 31 be bc
       -0.15409222 -0.26086715 -0.25560042 -0.023216827
0000b0 13 cb 20 be cb 5f 2e be 66 c0 78 be 2c 85 6d be
       -0.15702467 -0.1702873 -0.24292144 -0.23195332
0000c0 66 eb fc bd ae a5 07 be 5b 11 45 be 6d f1 f9 bd
       -0.12349586 -0.13246796 -0.19244902 -0.122042514
0000d0 0e 69 88 be 36 94 c9 bd a5 45 22 be b0 ff 6b be
       -0.2664265 -0.09842722 -0.1584688 -0.23046756
0000e0 42 3c 5e be e0 4e 8a 3d 29 bc 8e bd fe 56 28 be
       -0.21702674 0.067533255 -0.069694825 -0.16439435
0000f0 f7 a1 24 be 78 69 07 be 90 78 ef bd a5 fd 27 be
       -0.1607741 -0.13223827 -0.11692917 -0.16405351
000100 63 ae c7 bd 83 43 18 3e 59 03 16 3e 64 8a b0 3d
       -0.097500585 0.14869504 0.14649715 0.08620146
000110 36 5a 36 be 21 b0 ef 3d be 5d 5d be 9f f0 e3 3d
       -0.1780785 0.11703516 -0.21617791 0.11129879
000120 ed b9 39 be f0 13 ed 3d f3 8d 22 3e 61 67 b8 3d
       -0.18137331 0.115760684 0.15874462 0.09004093
000130 70 3e 7e bd 16 d2 34 3d 33 0b 93 3c 7c 14 b2 3d
       -0.062071264 0.044145666 0.017949676 0.08695313
000140 2b 05 a7 3d aa d2 fb 3d 96 f9 05 bd 76 27 18 3e
       0.081552826 0.1229604 -0.032708727 0.14858803
000150 18 ad ba 3d 2b a2 2e 3e ec 27 b9 3d 08 5e 68 be
       0.09115046 0.1705405 0.090408176 -0.2269212
000160 a8 3b 03 3e f2 ba 64 3d d9 63 3c 3d 22 54 82 be
       0.12815726 0.055842347 0.04599366 -0.25454813
000170 b4 9f d4 3d 0a 2d e3 3d 14 b3 2a 3e b3 10 fb bd
       0.103820235 0.11092575 0.16669875 -0.122590445
000180 24 d3 d8 be 06 25 c2 3c ab 9b 63 be 2d 70 1e 3e
       -0.42348588 0.023699295 -0.22227351 0.15472479
000190 b5 d3 3c 3e 2c 7d e5 3d 4e 90 87 3d 2c 1a 31 3e
       0.18440135 0.11205515 0.06619321 0.1729514
0001a0 04 a5 b8 bc 09 9e 52 3e e2 fe 2b 3e 7d cb a3 bd
       -0.022539623 0.20568098 0.16796449 -0.07997797
0001b0 a5 b3 d5 3d 93 9c 14 3d b3 28 25 3e 96 35 37 3d
       0.10434655 0.036282133 0.16128807 0.044728838
0001c0 42 cc 2a 3d b6 b6 7c 3c 1d 9b ca 3d 9b aa 50 3c
       0.0416987 0.015424421 0.09892867 0.012735988
0001d0 c0 24 32 3e 7f 43 83 3d 30 2d da 3d d1 9f e8 3d
       0.17396832 0.06409358 0.1065315 0.113586076
0001e0 cb 6c 09 3e e8 a2 41 3c 5b d9 56 3d 10 65 a3 3d
       0.13420407 0.011818625 0.05245338 0.079782605
0001f0 c2 21 ff 3d ca 5b ce 3d 9e 52 33 3d 18 6c bc 3d
       0.12457611 0.10076101 0.04377996 0.09200305
000200 e4 b2 52 3d 29 de 68 be 13 29 20 be ff 96 29 be
       0.051440135 -0.22740997 -0.15640669 -0.16561507
000210 c8 ed a5 3e 6a c6 f2 bd 34 5c 97 3d a4 ad 81 be
       0.32407975 -0.11854251 0.07390633 -0.2532779
000220 00 8a 0e 3f bd 0d 3c be f5 d6 98 be 9a 92 5d be
       0.5567932 -0.18364616 -0.298515 -0.21637955
000230 38 d7 35 be 1b de 42 be 43 75 9b 3d 3e d6 4c be
       -0.1775788 -0.19030039 0.07590725 -0.20003602
000240 51 1d 38 be 32 6e f7 bd 81 ae 63 be bb 77 6e be
       -0.17979933 -0.12081565 -0.22234537 -0.23287861
000250 48 28 3f be cf a1 95 bd de 41 41 be 33 82 c5 3e
       -0.1866771 -0.07306253 -0.18872783 0.38575897
000260 16 b2 92 bd 6b c4 1b 3d 2a df 15 be 18 2f 04 3f
       -0.071628734 0.038029116 -0.14635912 0.5163436
000270 c3 21 4c be a3 f5 05 be c8 b9 50 be e1 71 f1 3d
       -0.19934754 -0.13081984 -0.2038337 0.11789299
000280 29 5f 32 3f 1f d2 51 be 6e 9e 78 3e 48 f6 14 be
       0.6967645 -0.20490311 0.24279186 -0.14547074
000290 41 d0 98 be 1c 44 4a be 50 87 16 be 72 d4 83 be
       -0.29846385 -0.19752544 -0.14700055 -0.2574802
0002a0 0c 3e f9 3c 91 e5 61 be 39 76 8e be 14 58 3b bd
       0.030425094 -0.22060229 -0.27824572 -0.045738295
0002b0 28 ff 54 bb 75 37 53 be 39 fe 76 be 73 e5 52 be
       -0.0032500718 -0.20626624 -0.24120416 -0.2059534
0002c0 b9 6a fd bd af fe df bd 40 da 1b be 44 23 15 be
       -0.12373871 -0.10937249 -0.15219975 -0.14564234
0002d0 f2 20 83 be 5d e1 94 bd be b6 23 be 43 65 36 be
       -0.25611073 -0.07269547 -0.1598768 -0.17812066
0002e0 36 21 85 be 83 8e 44 3e 3c 02 14 be 17 49 44 be
       -0.260019 0.19194989 -0.14453977 -0.19168507
0002f0 76 95 22 be 25 b8 4e be 32 1b d2 bd a2 23 72 be
       -0.15877327 -0.20187433 -0.10259093 -0.23646405
000300 52 42 b1 bd da 4b 3d bc 9b bd c5 3d c5 5f 85 3d
       -0.08655228 -0.011553729 0.09655305 0.06512407
000310 60 7c 1b bc 5b d3 d9 3d e8 0a 8e 3d 82 2e 96 3d
       -0.0094901025 0.10636016 0.06935674 0.073330894
000320 8c 4d 2e be 58 c2 2b 3d 91 ea df 3c 52 d7 08 3c
       -0.1702177 0.041933388 0.02733353 0.008352118
000330 d6 d1 91 3d 72 6c 46 bd a2 d0 c5 3d 93 3e 94 3d
       0.07120101 -0.048443265 0.09658934 0.072384976
000340 5c 72 9d 3d 30 83 78 3d 23 79 33 bd b5 ed 82 3d
       0.07687828 0.060671985 -0.043816697 0.06392995
000350 d1 53 87 3c cd c5 ec bc bb d1 b1 bc 0b a8 f4 bd
       0.016519459 -0.028902913 -0.021706453 -0.11946114
000360 bc 3f d5 3c 57 0a 33 3c 4c 2c 27 3d 81 34 ec bd
       0.026031367 0.010927758 0.04081373 -0.11533452
000370 ad 02 32 3d 87 60 d1 bd 78 03 77 3d 93 44 1a bc
       0.043459583 -0.10223489 0.060306042 -0.009415763
000380 72 dc 13 be 8e 0d 8d 3d 1a ce fa bd 47 5b a6 3d
       -0.14439562 0.06887351 -0.12246342 0.081228785
000390 c2 5c 7d 3d 0a 44 2f 3d b7 32 bd 3c 3e e3 b8 3c
       0.06185604 0.042789496 0.023095472 0.022569295
0003a0 07 3d a1 3d 09 2e 57 3d c7 da 38 3d 39 cc 2b bd
       0.07872968 0.052534137 0.045130517 -0.04194281
0003b0 4b 2f c4 bd f2 72 7e 3d 94 2e 1a 3d 81 0c 4f 3c
       -0.09579333 0.06212134 0.037642077 0.0126372585
0003c0 48 df 3e 3d e8 af 9a 3d 2e 4c 00 bd 15 9a 06 3c
       0.046599656 0.07553083 -0.03132265 0.008215447
0003d0 8e 1f 44 3d 14 d6 90 bc ed 58 5b 3c 38 3f b0 3c
       0.047881655 -0.017680205 0.013387901 0.02151452
0003e0 55 c1 6b 3c e6 ee f6 ba a2 8b 95 3d 52 db 21 3d
       0.014389356 -0.0018839508 0.073020235 0.0395158
0003f0 4d d6 a0 3d c0 1e ab 3d 61 86 9f 3d b1 6c c2 3d
       0.07853375 0.083554745 0.077893026 0.094933875

bias f4 [32]
000000 71 5e a7 bd 5f d3 81 3c 9d 21 a0 3c 27 64 df bb
       -0.0817231 0.01584786 0.019547278 -0.006817359
000010 61 5c 48 3e 42 1a 9a 3d b7 68 1c 3d 6e e2 9a bc
       0.1956649 0.075245395 0.0381858 -0.018906798
000020 6f 96 38 3d f1 70 67 3d c3 a4 3f 3d e1 b9 9a bd
       0.04506534 0.056504194 0.04678799 -0.07554985
000030 3e 4a 9e bd 96 fe 85 3d b6 38 a9 bb 64 6f dc bb
       -0.07729004 0.06542699 -0.005164231 -0.006727146
000040 06 dd 01 bd 5b ae 2c 3d a4 8a 70 3d 18 dc 67 3d
       -0.031704925 0.042158466 0.058725968 0.056606382
000050 89 15 a2 3d 7d 32 e3 bd b5 92 ca bd 0a db 51 bb
       0.07914264 -0.11093614 -0.098912634 -0.0032021427
000060 77 bc e0 3d 35 94 df bd da 40 34 3d 41 69 a5 bd
       0.10973447 -0.1091694 0.04400716 -0.08076716
000070 25 6b b8 bb 25 3e b1 bd d3 f1 ce bb c4 61 c9 3c
       -0.005628007 -0.08654431 -0.006315449 0.024582751

weight f4 [1, 32]
000000 7c 1b 46 bf 8b 38 e3 3e 20 c5 4a bf fb 91 34 3e
       -0.7738569 0.44379076 -0.7920704 0.17633812
000010 75 8c 1f 3f 33 54 f9 3e 54 88 fc be f4 c0 02 bf
       0.62323695 0.4869705 -0.4932276 -0.51075673
000020 45 70 22 3f ff d5 4f be 6b 97 bb 3e 42 56 c4 bd
       0.6345256 -0.20296477 0.3663896 -0.09586765
000030 cb a9 93 3d 48 1b 36 3f 88 19 a2 3e 32 34 b2 bd
       0.0721012 0.7113538 0.31660104 -0.08701362
000040 15 4e 35 bf 2d 0a 69 3e c0 a4 0f 3f b7 55 9b bd
       -0.7082227 0.22757788 0.56110764 -0.07584708
000050 c1 20 1b 3e 77 02 c6 be 44 4f db 3c 0e cc 09 3f
       0.15149213 -0.38673756 0.026771195 0.5382699
000060 93 22 a4 3f 2f 8c a1 be 52 f5 c4 be dd 47 51 bd
       1.2823051 -0.31552264 -0.38468415 -0.051093925
000070 bd 35 00 3f dd a9 30 3d bc 1b a5 3e 88 00 12 bf
       0.50082 0.043130744 0.32247722 -0.5703206
